denomination_model.pth (torch, 38745 bytes, 6 tensors)

fc1.weight f4 [128, 1]
-0.53887534 -0.3299328 0.7615891 0.05134564 -0.00788464 0.8658913 0.086954094 0.5983115
0.85751665 -0.22964334 -0.7821301 0.3400993 -0.5574099 0.024219176 0.7448319 0.8802506
0.28030053 -0.009750635 -0.22801435 0.035093755 -0.49676466 0.86330974 -0.53599083 -0.6452118
0.1795346 -0.44388592 -0.42881644 0.082642786 -0.70698607 -0.05481553 0.052324034 -0.054454684
0.6517183 -0.9127461 0.80113363 -0.1306616 -0.072107434 -0.75489974 -0.64036167 0.82840943
-0.92731166 0.37738216 0.24194422 0.16318807 0.4849649 0.6944303 0.39870894 0.077613406
-0.51157606 0.059118487 -0.1596471 -0.28359723 0.33314776 -0.8359096 0.36295977 -0.13543606
-0.54625547 -0.23420405 -0.74771416 -0.8061528 -0.5646194 -0.38487387 0.07840656 0.15513277
-0.11626601 -0.27534676 -0.032515764 -0.8903911 0.2707933 0.94282824 -0.275939 0.5446908
0.18208145 0.9448549 -0.06008315 -0.69769335 -0.4805931 -0.9495597 0.4914142 0.62340754
-0.68840134 0.61247474 -0.22416031 0.28899682 0.746405 -0.6525302 0.9031248 -0.22340155
-0.81888247 0.49875882 0.57293385 0.09892422 -0.9696264 0.2568166 -0.586969 0.93205607
-0.61048675 0.26497203 0.0758473 -0.8820517 -0.80060875 0.12789927 -0.71422756 -0.1458509
-0.6604409 -0.14712238 0.74250704 0.83923 0.83672494 0.88931745 -0.319862 -0.9068599
-0.88838816 -0.059958935 -0.28063 0.8283274 -0.8455154 -0.29440796 -0.25305355 -0.9400183
-0.6524863 -0.6336529 -0.95245254 -0.8517542 -0.78798807 -0.7437066 -0.5330535 -0.4826963
00000000: bcf3 09bf f4ec a8be 81f7 423f ce4f 523d
00000010: 942e 01bc 0dab 5d3f fd14 b23d f12a 193f
00000020: 3686 5b3f a027 6bbe ae39 48bf 7f21 ae3e
00000030: 6ab2 0ebf 4b67 c63c 4ead 3e3f 1a58 613f
00000040: 8d83 8f3e 21c1 1fbc 987c 69be 78be 0f3d
00000050: f057 febe de01 5d3f b236 09bf 9a2c 25bf
00000060: ebd7 373e 0445 e3be d48d dbbe 9f40 a93d
00000070: 0afd 34bf 4086 60bd ba51 563d e00b 5fbd
00000080: 03d7 263f baa9 69bf 1817 4d3f 28cc 05be
00000090: 10ad 93bd 1c41 41bf beee 23bf a412 543f
000000a0: 4c64 6dbf 3c38 c13e 3ac0 773e c61a 273e
000000b0: 524d f83e 2fc6 313f 9423 cc3e c7f3 9e3d
000000c0: a6f6 02bf 3a26 723d 887a 23be a833 91be
000000d0: 5892 aa3e 2cfe 55bf ddd5 b93e c0af 0abe
000000e0: 66d7 0bbf 30d3 6fbe 326a 3fbf 0860 4ebf
000000f0: e68a 10bf 300e c5be 9e93 a03d 20db 1e3e
00000100: e01c eebd 40fa 8cbe 402f 05bd acf0 63bf
00000110: 6ba5 8a3e 315d 713f e047 8dbe db70 0b3f
00000120: 8f73 3a3e 03e2 713f c019 76bd 089c 32bf
00000130: 4c10 f6be 5816 73bf a49a fb3e a397 1f3f
00000140: 123b 30bf 25cb 1c3f 488a 65be 64f7 933e
00000150: 6614 3f3f 380c 27bf 3033 673f 60c3 64be
00000160: 48a2 51bf 515d ff3e cbab 123f c898 ca3d
00000170: 7039 78bf 777d 833e 9a43 16bf 3a9b 6e3f
00000180: dc48 1cbf 6aaa 873e d455 9b3d 24ce 61bf
00000190: b2f4 4cbf 07f8 023e 9ed7 36bf f059 15be
000001a0: a812 29bf 40a7 16be f114 3e3f c7d7 563f
000001b0: 9b33 563f 4faa 633f f4c4 a3be f827 68bf
000001c0: 686d 63bf 8097 75bd bcae 8fbe 440d 543f
000001d0: b273 58bf a4bc 96be 3c90 81be 0aa5 70bf
000001e0: 5809 27bf 1437 22bf eed3 73bf 900c 5abf
000001f0: 96b9 49bf 8e63 3ebf 3276 08bf f823 f7be

fc1.bias f4 [128]
0.30371547 0.29659092 0.37560582 0.608447 0.9715458 0.73436344 -0.35770288 0.25359443
0.95931417 -0.55252576 0.7741382 0.030196415 -0.44033754 -0.8786986 0.55518496 0.6484953
0.9183519 0.63487697 0.20894957 0.23420882 -0.8182485 -0.62879664 -0.22373843 0.20847821
-0.31696922 0.82112455 0.53650296 -0.52500695 0.86262405 0.7161782 -0.85113657 -0.34871006
-0.9150601 -0.99234664 0.6125479 0.4469651 -0.95701706 0.8557905 0.30024433 0.8474824
0.9552059 -0.5172823 0.5687997 -0.07624342 0.030902669 0.36946315 0.71731716 -0.3781784
0.5059564 -0.29553893 0.86666393 -0.95425355 0.6025519 -0.25466442 0.9849476 -0.95528054
-0.4136665 0.33401906 0.31429636 -0.781191 -0.46803534 -0.905812 -0.54575264 -0.30015162
-0.8951647 0.72352445 0.23922575 -0.4119848 0.8688571 0.97966284 -0.69258976 -0.65759444
-0.8502081 0.1915113 -0.7740555 -0.85523593 -0.3800224 0.0056957006 -0.58121574 0.4639937
0.3384596 -0.5965907 0.7063161 0.2593459 -0.29674128 0.10407543 -0.8844409 -0.21056628
0.06683326 -0.23031294 -0.6109405 -0.7777802 0.89187515 -1.0047728 0.6119021 0.837622
-0.40398955 -0.1789874 0.29759344 0.33149529 0.7959299 0.77484477 -0.810624 0.041144013
0.057998657 -0.23461127 -0.23520607 0.106434695 0.57539624 -0.7116311 0.55751884 -0.32458937
-0.39040434 -0.99168324 -0.04055524 -0.10008162 -0.49865413 -0.6739727 0.61449957 -0.5831677
-0.7445364 0.25543046 -0.91343296 -0.9904158 0.94650996 0.08037555 0.47994566 -0.85882485
00000000: 9880 9b3e c4da 973e 684f c03e 2fc3 1b3f
00000010: 3ab7 783f 3eff 3b3f d524 b7be 21d7 813e
00000020: 9d95 753f 5472 0dbf ec2d 463f 795e f73c
00000030: ec73 e1be 64f2 60bf 9a20 0e3f ca03 263f
00000040: 1c19 6b3f 4c87 223f e0f6 553e 70d4 6f3e
00000050: bc78 51bf d1f8 20bf b01b 65be 507b 553e
00000060: ca49 a2be 3835 523f 4258 093f db66 06bf
00000070: eed4 5c3f 7457 373f 16e4 59bf 208a b2be
00000080: 6141 6abf 6e0a 7ebf f0cf 1c3f 9cd8 e43e
00000090: 12ff 74bf 1615 5b3f a0b9 993e 9bf4 583f
000000a0: 6088 743f 9d6c 04bf db9c 113f 8325 9cbd
000000b0: 9827 fd3c 462a bd3e 19a2 373f 99a0 c1be
000000c0: 5c86 013f e150 97be b0dd 5d3f f649 74bf
000000d0: d740 1a3f 6063 82be 8725 7c3f 448d 74bf
000000e0: 18cc d3be 8c04 ab3e 74eb a03e 22fc 47bf
000000f0: 54a2 efbe 4ce3 67bf 72b6 0bbf 79ad 99be
00000100: 8429 65bf e638 393f 98f7 743e acef d2be
00000110: 6b6d 5e3f 2fcb 7a3f 904d 31bf 1c58 28bf
00000120: 3da7 59bf 8a1b 443e 8028 46bf bef0 5abf
00000130: 4c92 c2be 00a3 ba3b 8eca 14bf 9590 ed3e
00000140: 944a ad3e 2bba 18bf 22d1 343f fcc8 843e
00000150: 79ee 97be 8025 d53d b86a 62bf b09e 57be
00000160: e0df 883d 28d7 6bbe 9966 1cbf 9a1c 47bf
00000170: ee51 643f 659c 80bf 9ea5 1c3f 656e 563f
00000180: b8d7 cebe 7948 37be 2b5e 983e c0b9 a93e
00000190: 10c2 4b3f 3a5c 463f 0e85 4fbf a086 283d
000001a0: 0090 6d3d f03d 70be dcd9 70be 6ffa d93d
000001b0: 2b4d 133f 752d 36bf 8eb9 0e3f 9430 a6be
000001c0: 14e3 c7be f4de 7dbf 401d 26bd 98f7 ccbd
000001d0: 984f ffbe 7a89 2cbf d84f 1d3f 7a4a 15bf
000001e0: f099 3ebf c8c7 823e bed6 69bf e48b 7dbf
000001f0: 7a4e 723f f09b a43d 70bb f53e f2db 5bbf

fc2.weight f4 [64, 128]
0.05672001 -0.075052634 0.06434613 -0.025405856 0.045353718 -0.079764046 0.08064845 0.038294747
-0.0028729811 0.01883331 0.041911654 -0.010719913 -0.002956748 -0.059772965 -0.07396835 0.034134723
0.015659584 0.04630511 -0.05083127 0.03463792 0.06835792 0.0050646528 0.024164893 0.056221373
0.03147743 -0.0831416 -0.05177678 0.0014339668 0.08393451 -0.040097985 0.022719048 0.056174703
-0.02330666 0.0081908405 0.068091355 0.069017656 0.009334877 0.0091206655 -0.0414594 -0.005101088
0.0504834 0.017897354 -0.03749366 -0.043118995 0.026367193 0.023123108 0.03036033 0.052702002
-0.062011205 0.059584644 -0.034258686 0.03404694 0.055320907 -0.06563908 0.081622325 0.06896701
-0.009623811 0.07449185 0.013552763 0.08008709 0.050846614 0.06304204 0.07859031 -0.030997645
0.07984122 -0.016086295 -0.05331804 -0.055888902 0.07745566 -0.018073292 -0.032769352 0.016546564
-0.017392647 0.0494462 0.03389121 -0.020815194 0.04399521 -0.025252618 0.04265991 -0.0842327
0.065732636 0.07760667 -0.059803456 0.016044034 0.0006179256 -0.021153517 -0.042588387 0.058366932
0.018609539 0.015121022 0.003420854 -0.017628707 -0.027789723 4.386802e-05 -0.034937944 -0.015770221
-5.3472817e-05 -0.057036087 0.004300399 -0.056072894 -0.017100357 0.06784882 -0.06429861 -0.08304095
0.061912023 0.017957486 0.038961895 -0.029414695 -0.044080615 -0.02351799 -0.08116832 -0.029249344
0.08023117 0.05558444 -0.0065370277 -0.014823861 -0.013944656 -0.07250395 -0.06537163 -0.07707895
-0.046106145 0.029631212 0.064045094 0.011923216 -0.053784583 -0.03115733 -0.05176324 -0.019556336
-0.08374311 -0.080425866 0.044316985 0.023820184 -0.08377494 -0.087899804 0.068349086 0.06244073
0.009107724 0.07057477 -0.067677565 0.068673246 -0.031963926 -0.040422525 -0.01980158 -0.049473833
0.023631707 -0.067053445 -0.04498549 -0.0837688 0.064674534 0.025427654 -0.024390168 -0.05066623
-0.0432029 -0.004303232 0.06881211 -0.03881709 -0.042551856 0.08156457 0.059028067 0.07107901
0.07877561 0.030518606 -0.07051224 0.010071151 -0.012256123 -0.013354525 -0.0795982 -0.058877334
0.06255568 0.05376991 -0.08584596 -0.06827492 0.038248964 -0.039099306 -0.05034598 0.021484964
0.08498549 0.07708187 0.059293054 -0.03973256 -0.073499806 0.07375669 0.07296512 -0.037438665
0.024882816 0.0012234077 0.026032358 -0.0855512 0.06925448 0.01089415 0.07951448 -0.06370673
-0.067356415 -0.06468862 0.0042926073 0.06241428 -0.06301807 0.06188006 0.020932518 -0.012206957
0.025901131 -0.050559253 0.035025388 0.079283945 -0.060981274 0.013386473 -0.040689938 0.07390978
-0.04567317 -0.00279364 0.009162776 0.08183981 -0.050451767 0.080451526 0.06387607 -0.015645139
0.06891262 -0.06331153 -0.035582222 -0.05073701 -0.021198355 -0.020109504 0.08432453 -0.053471886
0.060901247 -0.025055967 -0.05775196 0.0058825165 0.04736095 0.050929047 -0.046848476 -0.024492495
-0.036653373 0.024449557 -0.07371711 0.070391856 0.005800903 -0.0038645938 0.017251082 -0.05990871
0.0875603 0.001341641 -0.037393704 0.06401656 -0.038779262 -0.009953655 -0.079430245 0.064078756
0.06291448 -0.022108518 0.06716677 0.033472024 -0.0066903606 0.064086534 -0.085828245 0.068039335
00000000: 3e53 683d 32b5 99bd e7c7 833d f11f d0bc
00000010: d2c4 393d 555b a3bd 042b a53d f4da 1c3d
00000020: a048 3cbb 5048 9a3c 8eab 2b3d 93a2 2fbc
00000030: 00c6 41bb 7fd4 74bd b87c 97bd dad0 0b3d
00000040: 8748 803c 6daa 3d3d 7334 50bd 7ee0 0d3d
00000050: 3dff 8b3d 63f5 a53b 74f5 c53c 6248 663d
00000060: 7aee 003d 2546 aabd e413 54bd f1f3 bb3a
00000070: dbe5 ab3d c93d 24bd 4c1d ba3c 7217 663d
00000080: 9ced bebc e032 063c 7b73 8b3d 2159 8d3d
00000090: 50f1 183c d86e 153c 55d1 29bd 0727 a7bb
000000a0: aec7 4e3d 799d 923c f492 19bd 8b9d 30bd
000000b0: 0300 d83c ac6c bd3c 3ab6 f83c 0ede 573d
000000c0: 76ff 7dbd 070f 743d d652 0cbd ce74 0b3d
000000d0: 2d98 623d c86d 86bd 9b29 a73d 933e 8d3d
000000e0: 30ad 1dbc 2f8f 983d 680c 5e3c b304 a43d
000000f0: 8a44 503d 2f1c 813d f5f3 a03d c6ee fdbc
00000100: cb83 a33d 68c7 83bc 0464 5abd c3eb 64bd
00000110: 13a1 9e3d 710e 94bc 2839 06bd a98c 873c
00000120: 067b 8ebc 1988 4a3d 82d1 0a3d a084 aabc
00000130: 5234 343d 94de cebc 28bc 2e3d 3282 acbd
00000140: d59e 863d 3ff0 9e3d 78f4 74bd c76e 833c
00000150: 49fc 213a 244a adbc 2971 2ebd 2a12 6f3d
00000160: 0873 983c 2abe 773c 6830 603b 146a 90bc
00000170: 46a7 e3bc eefe 3738 171b 0fbd 8d30 81bc
00000180: 0048 60b8 ac9e 69bd 5dea 8c3b b1ac 65bd
00000190: 0c16 8cbc 52f4 8a3d fdae 83bd 6011 aabd
000001a0: 7697 7d3d 941b 933c 8296 1f3d 16f7 f0bc
000001b0: e08d 34bd cda8 c0bc 933b a6bd 529c efbc
000001c0: 3d50 a43d 82ac 633d 9034 d6bb c8df 72bc
000001d0: 2078 64bc f37c 94bd 90e1 85bd 92db 9dbd
000001e0: ccd9 3cbd 28bd f23c 132a 833d 9859 433c
000001f0: 394d 5cbd a83d ffbc b105 54bd 9c34 a0bc
00000200: 8281 abbd 51b6 a4bd ba85 353d 8c22 c33c
00000210: 3292 abbd d004 b4bd 9bfa 8b3d dac1 7f3d
00000220: 9038 153c 8189 903d 899a 8abd 8fa4 8c3d
00000230: 9bec 02bd 1792 25bd ec36 a2bc 13a5 4abd
00000240: 4897 c13c 5153 89bd b542 38bd fa8e abbd
00000250: 1574 843d a84d d03c e4cd c7bc 6587 4fbd
00000260: 86f5 30bd 2002 8dbb 5ded 8c3d abfe 1ebd
00000270: db4a 2ebd 530b a73d 6ac7 713d df91 913d
00000280: 1b55 a13d 2802 fa3c b968 90bd 7801 253c
00000290: e8cd 48bc f0cc 5abc 6204 a3bd 5c29 71bd
000002a0: 311d 803d d63d 5c3d 02d0 afbd b9d3 8bbd
000002b0: f2aa 1c3d 9826 20bd 9637 4ebd 3c01 b03c
000002c0: df0c ae3d 19dd 9d3d 46dd 723d 9cbe 22bd
000002d0: 1187 96bd bf0d 973d bd6e 953d 4959 19bd
000002e0: 0cd7 cb3c c05a a03a d041 d53c 7835 afbd
000002f0: 4bd5 8d3d 607d 323c 7dd8 a23d ad78 82bd
00000300: 29f2 89bd 787b 84bd 00a9 8c3b 1ea6 7f3d
00000310: 9e0f 81bd f275 7d3d ac7a ab3c b0ff 47bc
00000320: 9c2e d43c 3817 4fbd c876 0f3d 9f5f a23d
00000330: 80c7 79bd f052 5b3c 7eaa 26bd 035e 973d
00000340: ca13 3bbd 8015 37bb 781f 163c a19b a73d
00000350: 83a6 4ebd c5c3 a43d 75d1 823d 3c2a 80bc
00000360: 0f22 8d3d 7aa9 81bd aabe 11bd 9cd1 4fbd
00000370: 2ca8 adbc b0bc a4bc 57b2 ac3d 5605 5bbd
00000380: 9673 793d 2c42 cdbc 528d 6cbd 20c2 c03b
00000390: 8efd 413d fa9a 503d 30e4 3fbd 7ca4 c8bc
000003a0: d921 16bd 704a c83c fff8 96bd 9b29 903d
000003b0: 8015 be3b 2045 7dbb 2452 8d3c d662 75bd
000003c0: d152 b33d 00da af3a 242a 19bd 1d1b 833d
000003d0: 01d7 1ebd a814 23bc 53ac a2bd b93b 833d
000003e0: 4fd9 803d ec1c b5bc bb8e 893d f619 093d
000003f0: d03a dbbb cd3f 833d b8c6 afbd 3558 8b3d

fc2.bias f4 [64]
0.024505217 -0.011393264 0.04753574 0.02062697 -0.0010561127 0.032189213 -0.010205604 -0.04853552
-0.0042943433 -0.05199703 -0.0855657 0.049759947 0.037477784 0.08638135 0.003984377 -0.06236515
-0.08340392 0.07070488 -0.027548667 -0.01626513 -0.023706466 -0.0700617 0.02333831 0.03235416
0.00071943045 0.07089433 0.039030008 0.06774139 -0.030077761 -0.10354753 -0.036914628 0.081614815
-0.04308121 -0.008944024 -0.046491712 -0.035773348 0.036499213 0.00076831045 0.07619528 0.0053970083
0.07828102 -0.008400745 -0.05030904 0.06479033 -0.027234193 -0.086546645 -0.067001425 -0.015732989
-0.025435656 0.03995309 -0.047141872 0.060133822 0.018901285 0.0387438 0.024393633 -0.025810672
0.08420824 -0.09128419 -0.08213856 -0.05851482 0.00837443 -0.039582506 0.007814795 0.0029902235
00000000: 2abf c83c d0aa 3abc d6b4 423d e4f9 a83c
00000010: 436d 8aba d6d8 033d 6835 27bc 2ecd 46bd
00000020: 90b7 8cbb d6fa 54bd 123d afbd 16d1 4b3d
00000030: 4e82 193d b5e8 b03d 608f 823b 9972 7fbd
00000040: adcf aabd b8cd 903d bead e1bc 733e 85bc
00000050: 1034 c2bc 827c 8fbd fc2f bf3c cc85 043d
00000060: 2998 3c3a 0c31 913d eedd 1f3d ffbb 8a3d
00000070: a365 f6bc ba10 d4bd cb33 17bd ab25 a73d
00000080: ec75 30bd f589 12bc 186e 3ebd 1387 12bd
00000090: 3380 153d 7168 493a 450c 9c3d 63d9 b03b
000000a0: cd51 a03d 47a3 09bc da10 4ebd cbb0 843d
000000b0: 3e1a dfbc 5e3f b1bd 0b38 89bd 78e2 80bc
000000c0: 705e d0bc daa5 233d d617 41bd e24e 763d
000000d0: ded6 9a3c d2b1 1e3d 28d5 c73c e770 d3bc
000000e0: 5f75 ac3d 35f3 babd 4338 a8bd 3cad 6fbd
000000f0: e834 093c 4421 22bd a009 003c a0f7 433b

fc3.weight f4 [6, 64]
0.021216497 0.07680014 0.030308962 0.039825886 0.03554874 0.0037638098 -0.10652295 0.079934515
0.02997823 0.026672404 -0.063383214 -0.10178126 -0.10200429 -0.0754153 -0.05103059 -0.055985842
-0.046002723 0.10763876 -0.06425336 -0.114628956 0.05689229 0.08899824 0.051091626 -0.01892066
0.068914495 0.021167241 0.030263036 0.11914067 -0.05375451 0.011975787 -0.09072493 0.098603226
0.009275641 0.040385917 0.017151227 0.048968658 -0.01306225 0.06742336 0.0074135363 0.0063394504
0.072091594 0.0471022 -0.09226631 -0.09961595 -0.07244753 -0.012002582 -0.08249174 -0.042195827
0.06924491 -0.09431866 0.08077027 0.122183606 -0.008242342 -0.02026166 0.08752413 0.011611378
0.050075755 -0.11397069 0.010212034 0.06847009 0.05790983 -0.078313366 0.030472038 0.035234153
-0.08649278 0.036723018 -0.006527126 0.034927353 -0.053378254 0.038108513 -0.059220318 0.077566214
-0.10810237 0.12033232 0.08037542 -0.09642311 0.034280613 -0.03496003 0.10192235 0.037605107
-0.0012899282 0.1008204 0.021211877 0.046395835 -0.060879156 -0.07436794 -0.11761437 0.050800204
0.12088502 -0.01001321 -0.019691259 0.12421468 0.08636764 -0.074174166 -0.009080711 0.106851056
-0.053975973 -0.004211036 -0.098162636 0.08994654 -0.015242435 0.0481551 0.06679872 0.04320937
0.07012999 -0.0035761946 0.04963094 -0.08482692 0.0348144 -0.071534656 -0.11727151 0.105596945
-0.028881282 -0.07313807 -0.043250605 -0.034726307 0.04234464 -0.037529126 -0.007334709 -0.104560174
-0.043771997 -0.035099056 0.12454833 -5.468726e-05 0.10366616 -0.08891265 -0.07915444 -0.058314547
-0.1256756 -0.046229586 -0.079761 -0.11757822 0.06564037 0.07753779 0.09289311 0.105934486
-0.10948263 -0.00027438637 -0.045331832 0.10501479 -0.12126525 0.06402089 0.08497113 -0.05413558
-0.04711146 -0.11452165 0.06665863 -0.09825559 -0.06129892 -0.073477834 -0.105944574 -0.08859381
0.114213996 0.08967894 -0.036514923 -0.009752408 -0.065927215 -0.095855966 0.016087584 -0.06769804
0.029675288 -0.12357128 0.115421124 -0.04603076 -0.12657705 0.06941722 -0.037638575 -0.015232945
-0.10103224 0.015565641 -0.041405007 0.054358378 0.05456207 -0.001765172 -0.11066519 0.067975104
0.053908855 -0.05791238 0.10733102 0.040920638 -0.05553394 -0.052530885 0.11919473 0.004258024
0.058991715 0.026508082 -0.11147557 0.020633146 -0.015011013 -0.043300062 -0.08932067 0.123161
-0.01948665 -0.028187573 0.04962024 -0.023208395 0.07788554 0.043955043 0.04063592 -0.081903204
0.076247275 -0.113752455 -0.058780722 -0.10936475 -0.03665948 0.062079385 0.101387635 -0.11517171
0.016430702 -0.066291936 -0.047170714 0.028053049 0.08726801 0.04198128 -0.045322314 -0.05102557
-0.024490492 0.01719658 0.06654258 -0.036236852 0.0067864526 -0.08059756 -0.009104477 -0.020217536
0.020776566 0.07133336 0.09005929 0.070544794 0.05522039 0.062683955 -0.11124192 -0.06287312
0.11551389 0.11224419 -0.0645113 -0.095492974 -0.10504035 0.014719726 -0.055212587 -0.05757439
0.08810316 -0.062013596 -0.060192898 -0.030542003 -0.042619012 0.033916995 -0.103992954 0.11120681
0.102864906 -0.06072844 -0.02234988 0.0028155297 -0.08633724 -0.032486677 0.013390474 0.07151002
00000000: 38ce ad3c 6449 9d3d 804a f83c 7820 233d
00000010: 8e9b 113d 40aa 763b b428 dabd b5b4 a33d
00000020: e894 f53c 1680 da3c 0fcf 81bd b172 d0bd
00000030: a0e7 d0bd 5673 9abd 7405 51bd 6951 65bd
00000040: 5a6d 3cbd b671 dc3d 4497 83bd 96c2 eabd
00000050: e407 693d b644 b63d 7445 513d 80ff 9abc
00000060: 0b23 8d3d ec66 ad3c 30ea f73c 0600 f43d
00000070: b02d 5cbd 1736 443c fecd b9bd 7df0 c93d
00000080: dcf8 173c b46b 253d bb80 8c3c 5c93 483d
00000090: 0c03 56bc 4215 8a3d 40ed f23b 2abb cf3b
000000a0: c2a4 933d 3dee 403d 1ef6 bcbd 7203 ccbd
000000b0: 5f5f 94bd 7aa6 44bc 6ef1 a8bd 88d5 2cbd
000000c0: 46d0 8d3d 242a c1bd e26a a53d 663b fa3d
000000d0: e30a 07bc c8fb a5bc da3f b33d a63d 3e3c
000000e0: 3c1c 4d3d 7769 e9bd 6050 273c 0c3a 8c3d
000000f0: dc32 6d3d c262 a0bd 7fa0 f93c b051 103d
00000100: 2023 b1bd e06a 163d 80e1 d5bb fc0f 0f3d
00000110: 28a3 5abd ac17 1c3d 0191 72bd 09db 9e3d
00000120: c664 ddbd cb70 f63d de9b a43d 7b79 c5bd
00000130: d469 0c3d 4032 0fbd aabc d03d d007 1a3d
00000140: cf12 a9ba ed7a ce3d 88c4 ad3c 8f09 3e3d
00000150: 6c5c 79bd 384e 98bd cedf f0bd e013 503d
00000160: 9192 f73d 720e 24bc 904f a1bc 4464 fe3d
00000170: 84e1 b03d a0e8 97bd 43c7 14bc bad4 da3d
00000180: e915 5dbd bbfc 89bb 7e09 c9bd e435 b83d
00000190: 68bb 79bc 483e 453d c4cd 883d 4ffc 303d
000001a0: 50a0 8f3d 975e 6abb d049 4b3d bcb9 adbd
000001b0: 8b99 0e3d c380 92bd 0c2c f0bd 3643 d83d
000001c0: 7098 ecbc 6ac9 95bd 8c27 31bd 2c3d 0ebd
000001d0: 9371 2d3d 24b8 19bd 0058 f0bb a523 d6bd
000001e0: 444a 33bd 07c4 0fbd 3213 ff3d 0060 65b8
000001f0: ec4e d43d d617 b6bd b91b a2bd 3cdb 6ebd
00000200: 1bb1 00be 3c5b 3dbd bc59 a3bd dacc f0bd
00000210: 756e 863d 22cc 9e3d be3e be3d 2ef4 d83d
00000220: 6e38 e0bd 84db 8fb9 dfad 39bd ff11 d73d
00000230: ea59 f8bd 621d 833d 5805 ae3d 45bd 5dbd
00000240: f2f7 40bd 548a eabd 5284 883d 3a3a c9bd
00000250: 9414 7bbd 8c7b 96bd 78f9 d8bd ac70 b5bd
00000260: 07e9 e93d 98a9 b73d ac90 15bd 90c8 1fbc
00000270: d904 87bd 2250 c4bd 1cca 833c 45a5 8abd
00000280: 9719 f33c f012 fdbd e961 ec3d c08a 3cbd
00000290: 6a9d 01be 9e2a 8e3d e82a 1abd 9a93 79bc
000002a0: fee9 cebd 0807 7f3c 4c98 29bd e4a6 5e3d
000002b0: 7a7c 5f3d 585d e7ba 6ea4 e2bd 8836 8b3d
000002c0: 88cf 5c3d 8835 6dbd 5ed0 db3d 669c 273d
000002d0: 8f77 63bd a02a 57bd 5e1c f43d e586 8b3b
000002e0: 4ca1 713d 7a27 d93c 4e4d e4bd d806 a93c
000002f0: c0f0 75bc 685b 31bd c1ed b6bd d63b fc3d
00000300: 78a2 9fbc a0e9 e6bc 983e 4b3d 881f bebc
00000310: 7482 9f3d 340a 343d da71 263d debc a7bd
00000320: 8827 9c3d 0cf7 e8bd 0ec4 70bd a0fa dfbd
00000330: 4028 16bd f446 7e3d 52a4 cf3d 25df ebbd
00000340: ae99 863c 11c4 87bd 1436 41bd 82cf e53c
00000350: 92b9 b23d 90f4 2b3d e4a3 39bd 3000 51bd
00000360: 49a0 c8bc d8df 8c3c 7a47 883d 186d 14bd
00000370: e460 de3b 5510 a5bd f22a 15bc 3f9f a5bc
00000380: 9e33 aa3c 3a17 923d 0171 b83d ca79 903d
00000390: c72e 623d 7260 803d ced2 e3bd 9fc3 80bd
000003a0: 8c92 ec3d 48e0 e53d 801e 84bd d291 c3bd
000003b0: 651f d7bd 012b 713c 9826 62bd 20d3 6bbd
000003c0: 6e6f b43d f801 7ebd d48c 76bd 3933 fabc
000003d0: 4691 2ebd 8cec 0a3d 42fa d4bd 65c0 e33d
000003e0: d6aa d23d 62be 78bd 1817 b7bc c084 383b
000003f0: 94d1 b0bd c010 05bd b863 5b3c d873 923d

fc3.bias f4 [6]
0.088455535 -0.09499693 0.034696948 -0.10840336 -0.020399222 -0.10433444
00000000: 2d28 b53d c08d c2bd 631e 0e3d 9502 debd
00000010: 451c a7bc 4bad d5bd
