chatbot/chatbot_model.pth (torch, 11805 bytes, 6 tensors)

fc1.weight f4 [16, 92]
000000 42 03 e9 3d 34 f3 ba 3e ad 09 b9 3e 7d 3d 3c 3e
       0.113775745 0.36513674 0.36140195 0.18382831
000010 ac 1c 91 3e 07 49 50 3f 6f 4b 9a 3e 05 88 76 be
       0.28342187 0.8136143 0.30135676 -0.24075325
000020 ad 63 55 be d3 97 98 3e f9 ce 9b bd 3a 58 b6 3e
       -0.20838805 0.29803333 -0.07607836 0.35614187
000030 2a 12 e0 be f8 15 e0 be 8f 85 02 3f 10 af 8b bd
       -0.43763858 -0.4376676 0.50985044 -0.068205
000040 76 f0 11 be 60 a6 e6 be 50 65 94 bd 90 eb ef bc
       -0.14251885 -0.4504881 -0.07245886 -0.02928713
000050 e8 cc a6 bd 3b 95 a9 bd 57 d0 6f 3c ed 85 c3 be
       -0.081445515 -0.082804166 0.014637074 -0.38188115
000060 dc 29 a0 bd 22 fe 08 bf ee a0 73 be 55 df 07 be
       -0.07820484 -0.53512776 -0.23791859 -0.13268788
000070 ef 8f f5 3e 8e 7c b6 bd f6 d5 c8 be 67 e3 7c 3e
       0.47961375 -0.08910476 -0.3922574 0.24696122
000080 93 6b af bd 11 ff 3c bd be 9f f1 3e c3 b7 6e be
       -0.0856544 -0.046141688 0.47192186 -0.23312287
000090 96 55 b9 bd 57 77 64 be 72 1f 61 be 80 80 e7 be
       -0.09049527 -0.2231115 -0.21984652 -0.45215225
0000a0 27 d6 09 bd 1a 72 f8 3c 1d c6 11 3e 92 39 f6 bd
       -0.033651497 0.030327845 0.1423573 -0.120226994
0000b0 e9 e5 19 3e 00 ce 94 be 63 4c e1 3d 3d f2 7c bd
       0.1502911 -0.29063416 0.11000898 -0.061754454
0000c0 a8 51 80 3e cb ad 96 bd 4e 30 05 be f7 8e 4f be
       0.250623 -0.07357367 -0.13006708 -0.2026938
0000d0 21 2d b2 bd 50 43 ad 3e fb 06 c8 bc ad 0e 82 bd
       -0.08700014 0.33840418 -0.024417391 -0.063504554
0000e0 a5 b2 84 bb 2f 0e b0 3d 80 05 03 be 58 12 1e be
       -0.0040496164 0.08596455 -0.12795067 -0.15436685
0000f0 fc 3c 03 be 37 3a c0 3c 98 14 09 bd 83 26 f7 3e
       -0.12816232 0.023465259 -0.033466905 0.4827157
000100 88 78 3d bd 64 85 88 3e fe cb c7 bd bd 3c 17 3e
       -0.046257526 0.2666427 -0.09755705 0.14769264
000110 36 14 97 3e f9 af 6d be dc 14 1d be e2 4e df be
       0.29507607 -0.2321166 -0.15339988 -0.4361487
000120 69 cf 14 be d9 59 1f 3f 3f 6c 00 be f6 ff 39 be
       -0.14532246 0.6224647 -0.12541293 -0.18164048
000130 e7 1d cd be 44 97 77 be 21 6e 73 be 98 f6 f7 bc
       -0.40061876 -0.24178797 -0.2377248 -0.030268952
000140 e6 df 38 be fa 66 2a 3b 09 2b df be ee b9 1b be
       -0.1805416 0.002600132 -0.4358752 -0.15207645
000150 88 10 47 be c4 b9 eb be 78 19 a6 be b1 7b 2f be
       -0.194399 -0.46040165 -0.32441306 -0.17137028
000160 ac 41 03 3d db d2 b2 bd b4 94 a1 bc 72 b9 cb 3e
       0.03204505 -0.08731624 -0.019724227 0.3978992
000170 e0 ce ac be 93 42 98 be a1 03 05 be 27 bd ee bd
       -0.33751583 -0.29738292 -0.12989666 -0.11657172
000180 21 a9 1a be d2 44 87 be f3 89 8a ba 26 36 37 3d
       -0.1510358 -0.26419693 -0.0010569677 0.044729374
000190 cc 6a ef 3d aa b7 42 be f8 a7 7b 3e 0d 38 5c be
       0.11690292 -0.19015375 0.24575794 -0.21505757
0001a0 ed 87 89 3e 99 43 9c be a1 68 03 3f f2 e4 30 3e
       0.26861516 -0.30520323 0.51331526 0.17274836
0001b0 0c 6c 2e be c9 fe c6 3e 89 cd 2b 3e 84 39 52 bd
       -0.17033404 0.3886626 0.16777624 -0.051324382
0001c0 db 4b a0 3e 09 c0 06 3e 98 2a ea 3d 03 1b 33 3e
       0.31307873 0.13159193 0.11433905 0.17490773
0001d0 e8 a9 85 3e e4 14 95 3e d7 66 57 3e 42 6c 01 be
       0.2610619 0.291175 0.21035324 -0.12638953
0001e0 ea 4a db 3e 26 f0 b3 be ee cb 99 3e c8 e8 59 be
       0.42830592 -0.35144156 0.30038399 -0.21280205
0001f0 c2 ec e7 bd 54 ab 5d be 22 36 db 3e a2 8c af be
       -0.11324455 -0.21647388 0.42814738 -0.34286982
000200 15 2d a6 3e c1 8a af be 89 a3 9f be 63 96 a1 3e
       0.3245627 -0.34285548 -0.31179455 0.31560048
000210 3c f7 b3 be 83 c9 61 be 14 1c 7c 3c 64 2b fd 3d
       -0.35149562 -0.22049527 0.015387554 0.12361792
000220 bc b7 bd 3d b9 29 0d 3e 97 9a 8e 3d a8 b5 9c 3e
       0.0926356 0.13785447 0.069630794 0.30607343
000230 84 b9 c0 bd 44 07 59 3d 0d 8d a8 3e 8b 0e 82 3d
       -0.09410384 0.052985445 0.32920113 0.0635043
000240 b4 cf f6 bd 68 5b 1c be f6 bf f2 3c 79 bc e2 3d
       -0.12051335 -0.15269244 0.02963255 0.110711046
000250 7d 6f 62 3e d8 3e bd 3d fa a2 d5 bd eb f7 34 3e
       0.22112842 0.09240502 -0.10431476 0.17672698
000260 03 f2 3f 3e 54 ed 71 3e 00 58 92 3e ef 6d bc 3e
       0.18744664 0.2362569 0.28582764 0.36802623
000270 d4 9c 86 be 5c 8d ed 3e 88 6f c4 bd 72 d5 90 3c
       -0.26291525 0.4639691 -0.095915854 0.017679904
000280 5b 86 4d be dc df 87 be ca e3 18 3d d5 10 9b 3e
       -0.20070784 -0.2653798 0.03732661 0.3028628
000290 9d e5 9f 3c 71 38 b7 be 35 9b 04 3e 40 0c 68 3e
       0.019518668 -0.3578525 0.12949832 0.22660923
0002a0 d4 7f bf 3b ed d3 12 3e 78 6e ac 3e 10 75 7a be
       0.0058440957 0.14338656 0.3367803 -0.24458718
0002b0 9f 39 6a 3e 2d 51 45 be 61 ce ba 3e 19 b4 8f 3e
       0.22873543 -0.19269247 0.3648558 0.2806709
0002c0 57 0f 45 3e c8 99 48 3e 6e 53 38 3d a8 03 6d 3e
       0.19244133 0.19589913 0.04500144 0.23145926
0002d0 4a 83 b9 bd f2 35 18 3e 84 79 cd be 39 9d 2f 3d
       -0.090582445 0.14864329 -0.40131772 0.04287455
0002e0 70 91 8f be 0d e7 6e be a6 06 31 be 0a 80 04 be
       -0.28040648 -0.23330326 -0.17287692 -0.12939468
0002f0 d9 58 19 be e5 3a 86 be 27 1c 6a bd 6e 0b 96 3e
       -0.14975299 -0.26216808 -0.057155754 0.29305595
000300 c9 f6 02 3e 40 06 2a be 54 81 98 3e bf 01 91 be
       0.12789454 -0.16603947 0.2978617 -0.28321645
000310 ae a1 ba 3e 27 d6 0a 3f 86 08 06 3e 04 d0 cc 3c
       0.36451477 0.5423302 0.13089189 0.025001533
000320 d3 cb a6 bc d0 9e c9 3e f7 f9 76 3e 5c 48 93 3e
       -0.020360863 0.39378977 0.24118792 0.28766143
000330 41 fa 81 3e 07 17 08 3e 03 e8 14 3e c8 33 58 3e
       0.2538624 0.13290034 0.1454163 0.21113503
000340 44 76 92 3e ba f3 88 3e e2 68 c1 3e 5d e5 c0 bd
       0.28605855 0.2674845 0.37775332 -0.094187476
000350 89 31 4d 3e 28 4a de 3e 42 10 f7 3e 61 49 7c bd
       0.20038427 0.43415952 0.4825459 -0.061593417
000360 12 2e b8 3d b9 33 52 be 2e 87 5c 3e 1a 4e 99 be
       0.08993162 -0.20527543 0.21535942 -0.299424
000370 57 bc 9d 3e ce 4b 99 be 7d 47 99 be 49 bb c2 3e
       0.30807754 -0.29940647 -0.29937354 0.38033512
000380 29 58 0d be 35 a1 27 3e 52 3f 0e be 2b 1a ef 3d
       -0.13803162 0.1637009 -0.13891342 0.11674913
000390 d4 32 67 3d 9c 0f b2 3e 83 cb 09 3e d2 c8 a2 3e
       0.056444958 0.34777534 0.1345654 0.3179384
0003a0 a0 ba f9 bc fd 67 52 3e 01 45 8a 3e e4 71 de 3e
       -0.030484498 0.20547481 0.2700577 0.43446267
0003b0 d8 b5 c0 bd f1 e4 e2 bb a9 57 8f 3e 45 38 d9 3d
       -0.09409684 -0.0069242646 0.27996567 0.10606436
0003c0 e6 dc 83 3e ea bd 26 bd de 3e 4f 3e d9 05 6d 3e
       0.2575447 -0.04070846 0.20238826 0.23146762
0003d0 29 b1 5c 3e 5a 57 63 3e 96 2a 7b 3e 81 e2 02 3e
       0.21551956 0.2220129 0.24527964 0.12781717
0003e0 57 a9 98 3d 92 56 a5 3b 07 60 25 3e 7a ba 41 bd
       0.07454174 0.0050457204 0.16149913 -0.04729698
0003f0 ce 72 6a be 35 76 67 3e a0 4d 32 bd 10 10 84 3e
       -0.22895357 0.22603686 -0.04353106 0.25793505

fc1.bias f4 [16]
000000 5b 52 50 3f e4 87 af 3e 30 4e 99 3e a8 09 da 3e
       0.81375664 0.34283364 0.29942465 0.42585492
000010 30 63 21 3f 62 4d 18 3f a1 c9 80 3e 80 0e a7 3e
       0.63041973 0.59493077 0.2515383 0.3262825
000020 76 58 39 3f 96 1c bc 3e 93 9a b2 3e a2 85 d8 3e
       0.72400606 0.3674056 0.34883556 0.42289454
000030 70 08 ff 3e 87 4b 88 3e 9a 4c ad 3e 06 18 15 3e
       0.49811125 0.26620123 0.33847505 0.14559945

fc2.weight f4 [16, 16]
000000 ad f5 ec bd 2f 91 f2 be f1 f1 ed 3c 6f 70 5b bf
       -0.115702964 -0.4737639 0.02904603 -0.85718435
000010 65 6d ef 3e de f4 19 3f 37 bc 1f be 0b 79 3c 3e
       0.4676315 0.6013926 -0.15599142 0.18405549
000020 c7 6a 08 3f f7 04 22 3e ab 06 86 3f 24 6c 28 3f
       0.5328793 0.15822206 1.0470785 0.6579001
000030 50 86 db be b0 76 ff 3e 74 91 b5 3e d4 f5 f9 3e
       -0.4287591 0.4989524 0.35462534 0.48820364
000040 45 7b 2b bb 61 7b c9 3e bb 93 5f be b9 75 35 3f
       -0.0026166004 0.39351943 -0.21833698 0.70882756
000050 9a 83 4a 3e bd 17 f9 3e 5a f2 12 bb 0c be 29 be
       0.19776765 0.48650923 -0.0022422285 -0.16576403
000060 d8 55 5b 3f 70 54 da be 83 13 93 3f f5 a6 d9 be
       0.8567786 -0.42642546 1.149033 -0.4251019
000070 df e3 06 bf 43 64 9e bd 97 72 cc 3e 4f 92 ff 3e
       -0.52691454 -0.07733967 0.39931175 0.49916312
000080 19 fe 27 bf b0 56 5c 3f 86 cd 61 3f e4 8c 5c 3f
       -0.656221 0.86069775 0.8820423 0.8615248
000090 1c 00 76 3e 3a 88 a7 3e db 47 62 3f 57 a6 12 3f
       0.24023479 0.3272112 0.8839089 0.57285064
0000a0 44 4d c9 bd 36 17 35 3f 13 c3 c3 bc 69 3c 1e 3e
       -0.098291904 0.7073854 -0.02389673 0.15452732
0000b0 20 4a 50 3e 83 fb da 3e 57 23 52 be 91 5b a7 3c
       0.20340776 0.42770013 -0.20521294 0.020429404
0000c0 bf 2e d1 be 50 d9 f0 3e f8 80 06 3f 00 e8 41 3e
       -0.40855977 0.47040796 0.5254054 0.18936157
0000d0 dc 45 22 3f 94 d9 12 3f a2 ca 43 3f 71 63 1e 3f
       0.63387847 0.5736325 0.7648107 0.61870486
0000e0 ef a4 1d bf 50 f7 56 3e f3 72 e5 be f0 7d 07 3f
       -0.61579794 0.2099278 -0.44814262 0.5292654
0000f0 72 4d 5e 3c 8e 4a 1f 3f 5c 68 a6 bc c8 a4 8a bd
       0.013568269 0.62223136 -0.020313434 -0.06769711
000100 e1 0b 16 3f d9 b9 bf 3e 77 e8 3c 3e 42 10 a0 3e
       0.58611876 0.37446478 0.18448053 0.31262404
000110 43 68 80 3e ae fe 9c 3e e8 ee 21 3f 27 c5 87 3e
       0.25079545 0.30663055 0.63255167 0.26517603
000120 bc e2 8d 3e c3 45 0f bf d1 61 ee bc e2 f9 62 bf
       0.27712047 -0.5596582 -0.029099377 -0.8866254
000130 97 34 ee bd 04 79 55 3e b4 e9 19 3f 73 99 22 3f
       -0.116311245 0.20846945 0.6012223 0.63515395
000140 fa b0 49 bf d1 d6 92 3e 75 18 11 3f 06 d1 3d be
       -0.7878567 0.28679517 0.56677943 -0.18536767
000150 14 99 15 3f 81 21 ea 3e d3 7d 15 3f 46 a6 3d 3f
       0.58436704 0.45728686 0.5839512 0.7408184
000160 c5 b2 d8 be 30 1b 21 3f 3d d4 02 be 82 31 79 3e
       -0.4232389 0.6293211 -0.12776275 0.24335292
000170 97 36 29 be ea 4e 29 3f 6e a1 9f be f1 78 93 3e
       -0.1652473 0.6613604 -0.3117785 0.28803208
000180 40 bd 12 3c a8 3e fe bd 30 c7 db bd 80 f6 37 bd
       0.0089562535 -0.124142945 -0.107313514 -0.044912815
000190 08 d1 2a 3e c8 4a 69 bd 34 04 95 bd a6 52 17 3e
       0.16681302 -0.056956083 -0.07276192 0.14777622
0001a0 80 c1 87 bb ea d0 4b be 88 d0 2b bd fe 38 15 be
       -0.00414294 -0.19903913 -0.041946918 -0.14572522
0001b0 be e8 5b be 72 aa 6f be c0 ed ec bc 38 56 9b 3d
       -0.21475503 -0.23404863 -0.028921962 0.07584804
0001c0 36 58 6b 3e 94 aa a4 3d 80 5d 46 3c 3c f6 ba bd
       0.22982869 0.08040348 0.012107253 -0.09128997
0001d0 e2 5e 36 be 1a 20 0c 3e 88 91 f3 bd 4c 6f dd 3d
       -0.17809632 0.13684121 -0.11892992 0.10812244
0001e0 1a 02 55 be 36 88 60 be f0 00 1b 3d 8c ec d3 bd
       -0.20801583 -0.2192696 0.03784269 -0.10347852
0001f0 12 76 35 3e 0e 8d 34 be ea cd 75 be 82 ce 6c be
       0.17720821 -0.17631933 -0.24004331 -0.23125651
000200 6d 52 3d 3f 2c 7d 22 3b 77 00 f2 3d 74 76 37 3f
       0.73953897 0.0024793847 0.11816495 0.7166512
000210 7e 6a 4a 3f 67 3f 77 3f 62 7d 9b 3e e6 a6 be 3e
       0.79068744 0.9658112 0.30369097 0.37236708
000220 7d b3 3d 3f 86 85 09 3f 53 51 b0 bd a0 cb 7d 3f
       0.74102 0.53719366 -0.08609261 0.9913883
000230 7c cb 3e 3f 1d 2e 1c bf 47 d0 0b bf 6f bc 99 bf
       0.7452924 -0.61007863 -0.5461468 -1.201063
000240 32 40 5c 3f e9 a4 64 3e e3 29 e4 3d 71 07 9d 3e
       0.86035454 0.22328533 0.11140802 0.3066974
000250 0a c5 9b be 90 40 8f bf be 05 bb be 20 95 f6 3d
       -0.30423766 -1.1191578 -0.36527818 0.12040162
000260 e7 d6 b9 3e 38 ee 85 3f 30 80 54 3e f3 c9 14 3f
       0.3629677 1.0463324 0.20752025 0.5812065
000270 2b aa 4e 3f 04 eb 6a 3f 69 60 b8 3e 45 0b 13 3f
       0.80728406 0.91764855 0.36011055 0.5743907
000280 5a c9 42 3f 23 7a 1f 3f da 4b cc 3e 14 1a 59 3f
       0.7608849 0.6229574 0.3990162 0.8480542
000290 79 89 18 3e 9e 58 0e bf 3c 12 91 3e ce c5 4b 3e
       0.14896192 -0.5560397 0.28334224 0.19899675
0002a0 b9 63 01 3c e2 77 22 3f 23 aa 68 bf 42 bf f2 3e
       0.007897311 0.63464177 -0.9088461 0.47411543
0002b0 36 bc 5f 3f be 95 c3 be e2 de 08 be ea ab 1f bf
       0.8739656 -0.38200182 -0.13366273 -0.62371695
0002c0 12 f2 b6 3e 12 be 63 3e 53 40 8b 3e 24 b4 31 be
       0.3573156 0.22240475 0.27197513 -0.17353874
0002d0 6f 17 1b 3f 4e 46 3a 3f 03 39 2d 3f a8 b0 8f 3e
       0.6058263 0.72763526 0.6766512 0.28064466
0002e0 89 b0 de 3e 03 ec 20 bf 00 32 bd 3e c9 90 2d bf
       0.4349406 -0.62860125 0.3695221 -0.6779905
0002f0 ef 9b c7 be ab 1a 0c 3e 79 0a 0d 3f 79 5d a7 3e
       -0.38986155 0.13682048 0.55094105 0.326885
000300 89 29 1e 3f f5 34 01 3f 98 8b 1f bd 09 b8 0d 3f
       0.6178213 0.5047143 -0.038951486 0.5535894
000310 43 3c 81 3e f5 0d 7f 3e 0c 84 04 3f b7 b0 a2 be
       0.2524129 0.24907668 0.5176399 -0.31775448
000320 5a fc 25 3f 8f a7 f6 be 40 56 d6 3e bc e2 44 bf
       0.6483818 -0.48174712 0.4186268 -0.7690847
000330 a3 f7 2f be ac 87 14 bd ff c7 0c 3f d7 f4 8e 3e
       -0.1718431 -0.0362622 0.5499267 0.27921173
000340 a8 85 3b be 23 04 13 3f 74 42 09 3e d3 19 1d 3f
       -0.18312705 0.5742819 0.13404256 0.6136753
000350 9f d9 09 bd db ad e1 be c5 2f eb bd 54 16 fa 3d
       -0.033654805 -0.44077954 -0.11483721 0.1221129
000360 e1 9b 26 3e 6b e3 d5 3e 61 6a 2a 3f ed c3 67 bd
       0.162704 0.4177507 0.6656857 -0.056583334
000370 be cf 99 3c de 3f 07 3f 91 d5 2d 3f 7e 75 71 3f
       0.018775817 0.5283183 0.67904 0.94319904
000380 22 30 8c 3e fe 48 15 bf 59 a3 a3 be eb 9c 2f bf
       0.27380472 -0.583145 -0.31960562 -0.6859881
000390 c6 58 cd 3e 1f e0 e2 3d 5d 9c 4f bf fc 87 04 bf
       0.4010679 0.11077904 -0.81097966 -0.51769996
0003a0 cf 15 1d 3f 24 35 a9 3e 91 7c 2c 3f ce bd 22 3f
       0.613614 0.33048356 0.67377573 0.6357087
0003b0 12 31 b5 bc 79 87 f6 3e cd dc 80 3e 8d 97 b3 3e
       -0.022118125 0.48150232 0.25168458 0.35076562
0003c0 7c 4a 94 3e c2 57 3e bf 8f 00 93 3d 84 bd e3 be
       0.28963077 -0.7435266 0.07177841 -0.44480526
0003d0 d8 84 e7 3e f1 27 f1 3e c3 23 5c be 5b c1 14 3e
       0.4521854 0.47100785 -0.21498017 0.14526884
0003e0 cd 70 88 3e 90 56 d6 be 53 30 88 3e 7a e3 22 3f
       0.2664856 -0.41862917 0.26599368 0.6362835
0003f0 3a 0d 4b be 5c 75 99 3e f0 89 7d be b6 f3 ae 3d
       -0.19829264 0.2997235 -0.2475965 0.08542578

fc2.bias f4 [16]
000000 da 04 c6 3e 29 a1 af 3e d2 52 53 be ad d7 6b 3e
       0.38675576 0.34302643 -0.20637062 0.23031493
000010 cc 4a aa 3b 28 28 da 3d b8 0e e1 bd 6e f8 6e be
       0.0051969048 0.106521904 -0.109891355 -0.23336956
000020 63 8e 4b 3f f5 e5 58 be 2e f4 f0 3e 4e 27 4f 3e
       0.7951414 -0.21181472 0.47061294 0.20229837
000030 8b 4f 7c 3e 26 d8 c0 be 46 90 fc 3e 91 2b be 3e
       0.24639718 -0.37664908 0.49328822 0.37142614

fc3.weight f4 [7, 16]
000000 6e bf 7d 3e 0a c3 38 bf 3f d7 5d 3e d9 7b fc 3e
       0.24780056 -0.72172606 0.21664141 0.49313238
000010 93 91 3f be a7 13 c5 3e f8 c8 db 3d fe 27 43 be
       -0.18707876 0.38491556 0.10731691 -0.19058225
000020 1b 28 26 bc 68 6a 75 bf e1 bc 98 be a3 fe a2 3d
       -0.010141398 -0.9586549 -0.29831603 0.07958724
000030 bf a3 6a bf ca e2 49 bf 76 ca 0e bf 6b f1 f7 3e
       -0.91656107 -0.7886168 -0.5577768 0.48426375
000040 14 5b 56 3e f0 db 8c 3e 2d b8 87 bf e7 1f 3c bf
       0.20933181 0.2751155 -1.0603081 -0.7348618
000050 53 2e 30 3e 45 d3 2a bf 72 80 68 3e 24 72 4a 3e
       0.17205171 -0.6672862 0.22705248 0.19770104
000060 12 6e 9a bf 83 6d 0e 3f 0e 96 0c bf 25 7a 12 3d
       -1.2064841 0.5563585 -0.54916465 0.035761017
000070 fb 77 b4 3e e7 f3 de 3e c9 6b bf 3e d1 40 56 bd
       0.35247788 0.43545458 0.3738692 -0.052307907
000080 05 6e b9 bb e5 d2 92 3e f3 43 8f 3e 8f d9 d8 bc
       -0.0056588673 0.28676525 0.2798153 -0.026470928
000090 05 ef ac 3e cc 5d e2 3e 74 da 51 be 08 fa d1 bd
       0.33776107 0.44212186 -0.2049349 -0.10252768
0000a0 26 02 5c bf 0a 67 ca be af 45 3b bf cf 48 b4 3e
       -0.8594078 -0.39531738 -0.73153204 0.352118
0000b0 19 a4 72 3e 4c e0 c1 3e cc c3 e4 be 18 61 11 bf
       0.23695411 0.37866437 -0.4468063 -0.5678878
0000c0 9a 8f 88 bf 2e 4e 78 3e 52 26 6d bc f6 ba a3 bd
       -1.0668824 0.24248573 -0.014474468 -0.07994644
0000d0 98 17 c3 3e be f4 23 bf ba 39 16 3e ac e9 7d be
       0.38103938 -0.6404532 0.14670458 -0.2479617
0000e0 53 5d 54 3e 28 77 21 be 29 c8 e1 3e 3b 51 a3 3e
       0.20738725 -0.15768111 0.44098023 0.3189791
0000f0 ce f9 09 3f 8d 83 0f be 5b f7 8d bf 5a bc 22 bf
       0.53896797 -0.14015026 -1.1091112 -0.6356865
000100 ed fb 0e 3f bf 20 10 3f 2b f1 6c bf 10 d1 15 bf
       0.5585316 0.56299967 -0.92555493 -0.5852213
000110 a1 3d af be 3e 10 ab be ba ff 20 3e c0 0a 97 3c
       -0.34226707 -0.3341083 0.15722552 0.018437743
000120 9f 7b 79 3e b6 d6 94 bf fc ca 22 bf b3 27 2e 3e
       0.24363564 -1.1628025 -0.6359098 0.17007332
000130 e3 1f 90 3e 5e 91 4a bf 21 0e 09 3f ea 2f a1 3e
       0.28149328 -0.7912806 0.53537184 0.31481868
000140 79 52 14 bf 32 1b 02 bf b6 ba f9 3e 38 27 31 3e
       -0.57938343 -0.50822747 0.48775262 0.17300117
000150 b0 76 43 bf ca 82 a6 3e 40 48 98 3c 96 74 7a be
       -0.7635298 0.3252166 0.018589139 -0.24458537
000160 82 12 9b bd 28 fc 72 3e 2e 04 95 3e 78 53 43 bf
       -0.075718895 0.23729002 0.2910475 -0.7629924
000170 bb 7a 72 bf 2e b9 05 3f 9c d2 84 bf 77 8c 18 bf
       -0.9471852 0.52235687 -1.0376773 -0.5958933
000180 51 45 4c 3e 48 c3 8a bf c1 8a 2b bf 16 48 96 be
       0.19948317 -1.0840845 -0.67008597 -0.29351872
000190 6b 01 8b bf ec e4 ad be e6 e6 6e be c2 5d 6c be
       -1.0859808 -0.33963716 -0.23330268 -0.23082641
0001a0 a0 85 df 3e b6 48 3f 3f e5 90 43 3e 92 f2 48 bf
       0.43656635 0.74720323 0.19098242 -0.7849513
0001b0 12 87 f8 be e8 e3 1c bf 66 e9 8c 3e 83 68 89 3e
       -0.4854055 -0.6128526 0.2752182 0.2683755

fc3.bias f4 [7]
000000 8a 58 1e be 6b f9 a2 be 89 8a c5 be b9 0e 38 bd
       -0.15463462 -0.31830916 -0.38582256 -0.044935916
000010 58 42 06 3e 4d fd d3 bd a3 14 cd bc
       0.13111246 -0.10351048 -0.025034254
